…
  file_it                  	1
  filename                 	output/co2INN4.pt1
  fn_dropout               	0.2
  init_scale               	0.0375
  internal_width           	256
  l2_weight_reg            	1e-05
  latent_noise             	1.0
  live_visualization       	True
  load_file                	
  losses                   	[]
  lr_init                  	0.0001
  lr_reduce_factor         	0.2
  main_file                	train
  model                    	CINN(
  (cinn): ReversibleGraphNet(
    (module_list): ModuleList(
      (0): None
      (1): GLOWCouplingBlock(
        (s1): Sequential(
          (0): Linear(in_features=130, out_features=256, bias=True)
          (1): LeakyReLU(negative_slope=0.01)
          (2): Linear(in_features=256, out_features=256, bias=True)
          (3): LeakyReLU(negative_slope=0.01)
          (4): Linear(in_features=256, out_features=6, bias=True)
        )
        (s2): Sequential(
          (0): Linear(in_features=131, out_features=256, bias=True)
          (1): LeakyReLU(negative_slope=0.01)
          (2): Linear(in_features=256, out_features=256, bias=True)
          (3): LeakyReLU(negative_slope=0.01)
          (4): Linear(in_features=256, out_features=4, bias=True)
        )
      )
      (2): GLOWCouplingBlock(
        (s1): Sequential(
          (0): Linear(in_features=130, out_features=256, bias=True)
          (1): LeakyReLU(negative_slope=0.01)
          (2): Linear(in_features=256, out_features=256, bias=True)
          (3): LeakyReLU(negative_slope=0.01)
          (4): Linear(in_features=256, out_features=6, bias=True)
        )
        (s2): Sequential(
          (0): Linear(in_features=131, out_features=256, bias=True)
          (1): LeakyReLU(negative_slope=0.01)
          (2): Linear(in_features=256, out_features=256, bias=True)
          (3): LeakyReLU(negative_slope=0.01)
          (4): Linear(in_features=256, out_features=4, bias=True)
        )
      )
      (3): GLOWCouplingBlock(
        (s1): Sequential(
          (0): Linear(in_features=130, out_features=256, bias=True)
          (1): LeakyReLU(negative_slope=0.01)
          (2): Linear(in_features=256, out_features=256, bias=True)
          (3): LeakyReLU(negative_slope=0.01)
          (4): Linear(in_features=256, out_features=6, bias=True)
        )
        (s2): Sequential(
          (0): Linear(in_features=131, out_features=256, bias=True)
          (1): LeakyReLU(negative_slope=0.01)
          (2): Linear(in_features=256, out_features=256, bias=True)
          (3): LeakyReLU(negative_slope=0.01)
          (4): Linear(in_features=256, out_features=4, bias=True)
        )
      )
      (4): GLOWCouplingBlock(
        (s1): Sequential(
          (0): Linear(in_features=130, out_features=256, bias=True)
          (1): LeakyReLU(negative_slope=0.01)
          (2): Linear(in_features=256, out_features=256, bias=True)
          (3): LeakyReLU(negative_slope=0.01)
          (4): Linear(in_features=256, out_features=6, bias=True)
        )
        (s2): Sequential(
          (0): Linear(in_features=131, out_features=256, bias=True)
          (1): LeakyReLU(negative_slope=0.01)
          (2): Linear(in_features=256, out_features=256, bias=True)
          (3): LeakyReLU(negative_slope=0.01)
          (4): Linear(in_features=256, out_features=4, bias=True)
        )
      )
      (5): GLOWCouplingBlock(
        (s1): Sequential(
          (0): Linear(in_features=130, out_features=256, bias=True)
          (1): LeakyReLU(negative_slope=0.01)
          (2): Linear(in_features=256, out_features=256, bias=True)
          (3): LeakyReLU(negative_slope=0.01)
          (4): Linear(in_features=256, out_features=6, bias=True)
        )
        (s2): Sequential(
          (0): Linear(in_features=131, out_features=256, bias=True)
          (1): LeakyReLU(negative_slope=0.01)
          (2): Linear(in_features=256, out_features=256, bias=True)
          (3): LeakyReLU(negative_slope=0.01)
          (4): Linear(in_features=256, out_features=4, bias=True)
        )
      )
      (6): GLOWCouplingBlock(
        (s1): Sequential(
          (0): Linear(in_features=130, out_features=256, bias=True)
          (1): LeakyReLU(negative_slope=0.01)
          (2): Linear(in_features=256, out_features=256, bias=True)
          (3): LeakyReLU(negative_slope=0.01)
          (4): Linear(in_features=256, out_features=6, bias=True)
        )
        (s2): Sequential(
          (0): Linear(in_features=131, out_features=256, bias=True)
          (1): LeakyReLU(negative_slope=0.01)
          (2): Linear(in_features=256, out_features=256, bias=True)
          (3): LeakyReLU(negative_slope=0.01)
          (4): Linear(in_features=256, out_features=4, bias=True)
        )
      )
      (7): GLOWCouplingBlock(
        (s1): Sequential(
          (0): Linear(in_features=130, out_features=256, bias=True)
          (1): LeakyReLU(negative_slope=0.01)
          (2): Linear(in_features=256, out_features=256, bias=True)
          (3): LeakyReLU(negative_slope=0.01)
          (4): Linear(in_features=256, out_features=6, bias=True)
        )
        (s2): Sequential(
          (0): Linear(in_features=131, out_features=256, bias=True)
          (1): LeakyReLU(negative_slope=0.01)
          (2): Linear(in_features=256, out_features=256, bias=True)
          (3): LeakyReLU(negative_slope=0.01)
          (4): Linear(in_features=256, out_features=4, bias=True)
        )
      )
      (8): GLOWCouplingBlock(
        (s1): Sequential(
          (0): Linear(in_features=130, out_features=256, bias=True)
          (1): LeakyReLU(negative_slope=0.01)
          (2): Linear(in_features=256, out_features=256, bias=True)
          (3): LeakyReLU(negative_slope=0.01)
          (4): Linear(in_features=256, out_features=6, bias=True)
        )
        (s2): Sequential(
          (0): Linear(in_features=131, out_features=256, bias=True)
          (1): LeakyReLU(negative_slope=0.01)
          (2): Linear(in_features=256, out_features=256, bias=True)
          (3): LeakyReLU(negative_slope=0.01)
          (4): Linear(in_features=256, out_features=4, bias=True)
        )
      )
      (9): GLOWCouplingBlock(
        (s1): Sequential(
          (0): Linear(in_features=130, out_features=256, bias=True)
          (1): LeakyReLU(negative_slope=0.01)
          (2): Linear(in_features=256, out_features=256, bias=True)
          (3): LeakyReLU(negative_slope=0.01)
          (4): Linear(in_features=256, out_features=6, bias=True)
        )
        (s2): Sequential(
          (0): Linear(in_features=131, out_features=256, bias=True)
          (1): LeakyReLU(negative_slope=0.01)
          (2): Linear(in_features=256, out_features=256, bias=True)
          (3): LeakyReLU(negative_slope=0.01)
          (4): Linear(in_features=256, out_features=4, bias=True)
        )
      )
      (10): GLOWCouplingBlock(
        (s1): Sequential(
          (0): Linear(in_features=130, out_features=256, bias=True)
          (1): LeakyReLU(negative_slope=0.01)
          (2): Linear(in_features=256, out_features=256, bias=True)
          (3): LeakyReLU(negative_slope=0.01)
          (4): Linear(in_features=256, out_features=6, bias=True)
        )
        (s2): Sequential(
          (0): Linear(in_features=131, out_features=256, bias=True)
          (1): LeakyReLU(negative_slope=0.01)
          (2): Linear(in_features=256, out_features=256, bias=True)
          (3): LeakyReLU(negative_slope=0.01)
          (4): Linear(in_features=256, out_features=4, bias=True)
        )
      )
      (11): dummy()
      (12): None
      (13): None
      (14): None
      (15): None
      (16): None
      (17): None
      (18): None
      (19): None
      (20): None
      (21): None
    )
  )
  (cond_net): CondNet(
    (subCondNets): ModuleList(
      (0): Sequential(
        (0): Linear(in_features=512, out_features=512, bias=True)
        (1): LeakyReLU(negative_slope=0.01)
        (2): Linear(in_features=512, out_features=128, bias=True)
      )
      (1): Sequential(
        (0): Linear(in_features=512, out_features=512, bias=True)
        (1): LeakyReLU(negative_slope=0.01)
        (2): Linear(in_features=512, out_features=128, bias=True)
      )
      (2): Sequential(
        (0): Linear(in_features=512, out_features=512, bias=True)
        (1): LeakyReLU(negative_slope=0.01)
        (2): Linear(in_features=512, out_features=128, bias=True)
      )
      (3): Sequential(
        (0): Linear(in_features=512, out_features=512, bias=True)
        (1): LeakyReLU(negative_slope=0.01)
        (2): Linear(in_features=512, out_features=128, bias=True)
      )
      (4): Sequential(
        (0): Linear(in_features=512, out_features=512, bias=True)
        (1): LeakyReLU(negative_slope=0.01)
        (2): Linear(in_features=512, out_features=128, bias=True)
      )
      (5): Sequential(
        (0): Linear(in_features=512, out_features=512, bias=True)
        (1): LeakyReLU(negative_slope=0.01)
        (2): Linear(in_features=512, out_features=128, bias=True)
      )
      (6): Sequential(
        (0): Linear(in_features=512, out_features=512, bias=True)
        (1): LeakyReLU(negative_slope=0.01)
        (2): Linear(in_features=512, out_features=128, bias=True)
      )
      (7): Sequential(
        (0): Linear(in_features=512, out_features=512, bias=True)
        (1): LeakyReLU(negative_slope=0.01)
        (2): Linear(in_features=512, out_features=128, bias=True)
      )
      (8): Sequential(
        (0): Linear(in_features=512, out_features=512, bias=True)
        (1): LeakyReLU(negative_slope=0.01)
        (2): Linear(in_features=512, out_features=128, bias=True)
      )
      (9): Sequential(
        (0): Linear(in_features=512, out_features=512, bias=True)
        (1): LeakyReLU(negative_slope=0.01)
        (2): Linear(in_features=512, out_features=128, bias=True)
      )
    )
    (bigCondNet): Cnn_long_solve(
      (cnn2): Sequential(
        (0): Conv1d(3, 20, kernel_size=(3,), stride=(1,), padding=(1,))
        (1): LeakyReLU(negative_slope=True)
        (2): BatchNorm1d(20, eps=1e-05, momentum=0.1, affine=True, track_running_stats=True)
        (3): Conv1d(20, 20, kernel_size=(3,), stride=(1,), padding=(1,))
        (4): BatchNorm1d(20, eps=1e-05, momentum=0.1, affine=True, track_running_stats=True)
        (5): LeakyReLU(negative_slope=True)
        (6): Conv1d(20, 20, kernel_size=(3,), stride=(2,), padding=(1,))
        (7): LeakyReLU(negative_slope=True)
        (8): BatchNorm1d(20, eps=1e-05, momentum=0.1, affine=True, track_running_stats=True)
        (9): Conv1d(20, 20, kernel_size=(3,), stride=(1,), padding=(1,))
        (10): LeakyReLU(negative_slope=True)
        (11): BatchNorm1d(20, eps=1e-05, momentum=0.1, affine=True, track_running_stats=True)
        (12): Conv1d(20, 20, kernel_size=(3,), stride=(1,), padding=(1,))
        (13): LeakyReLU(negative_slope=True)
        (14): BatchNorm1d(20, eps=1e-05, momentum=0.1, affine=True, track_running_stats=True)
        (15): Conv1d(20, 20, kernel_size=(3,), stride=(2,), padding=(1,))
        (16): LeakyReLU(negative_slope=True)
        (17): BatchNorm1d(20, eps=1e-05, momentum=0.1, affine=True, track_running_stats=True)
        (18): Conv1d(20, 20, kernel_size=(3,), stride=(1,), padding=(1,))
        (19): LeakyReLU(negative_slope=True)
        (20): BatchNorm1d(20, eps=1e-05, momentum=0.1, affine=True, track_running_stats=True)
        (21): Conv1d(20, 20, kernel_size=(3,), stride=(1,), padding=(1,))
        (22): LeakyReLU(negative_slope=True)
        (23): BatchNorm1d(20, eps=1e-05, momentum=0.1, affine=True, track_running_stats=True)
        (24): Conv1d(20, 20, kernel_size=(3,), stride=(1,), padding=(1,))
        (25): LeakyReLU(negative_slope=True)
        (26): BatchNorm1d(20, eps=1e-05, momentum=0.1, affine=True, track_running_stats=True)
        (27): Conv1d(20, 20, kernel_size=(3,), stride=(2,), padding=(1,))
        (28): LeakyReLU(negative_slope=True)
        (29): BatchNorm1d(20, eps=1e-05, momentum=0.1, affine=True, track_running_stats=True)
      )
      (cnn3): Sequential(
        (0): Conv1d(1, 20, kernel_size=(3,), stride=(1,), padding=(1,))
        (1): LeakyReLU(negative_slope=True)
        (2): BatchNorm1d(20, eps=1e-05, momentum=0.1, affine=True, track_running_stats=True)
        (3): Conv1d(20, 20, kernel_size=(3,), stride=(2,), padding=(1,))
        (4): LeakyReLU(negative_slope=True)
        (5): BatchNorm1d(20, eps=1e-05, momentum=0.1, affine=True, track_running_stats=True)
        (6): Conv1d(20, 20, kernel_size=(3,), stride=(2,), padding=(1,))
        (7): LeakyReLU(negative_slope=True)
        (8): BatchNorm1d(20, eps=1e-05, momentum=0.1, affine=True, track_running_stats=True)
        (9): Conv1d(20, 20, kernel_size=(3,), stride=(2,), padding=(1,))
        (10): LeakyReLU(negative_slope=True)
        (11): BatchNorm1d(20, eps=1e-05, momentum=0.1, affine=True, track_running_stats=True)
        (12): Conv1d(20, 20, kernel_size=(3,), stride=(2,), padding=(1,))
        (13): LeakyReLU(negative_slope=True)
        (14): BatchNorm1d(20, eps=1e-05, momentum=0.1, affine=True, track_running_stats=True)
        (15): Conv1d(20, 20, kernel_size=(3,), stride=(2,), padding=(1,))
        (16): LeakyReLU(negative_slope=True)
        (17): BatchNorm1d(20, eps=1e-05, momentum=0.1, affine=True, track_running_stats=True)
      )
      (cnn): Sequential(
        (0): Conv1d(1, 20, kernel_size=(3,), stride=(1,), padding=(1,))
        (1): LeakyReLU(negative_slope=True)
        (2): BatchNorm1d(20, eps=1e-05, momentum=0.1, affine=True, track_running_stats=True)
        (3): Conv1d(20, 20, kernel_size=(3,), stride=(1,), padding=(1,))
        (4): BatchNorm1d(20, eps=1e-05, momentum=0.1, affine=True, track_running_stats=True)
        (5): LeakyReLU(negative_slope=True)
        (6): Conv1d(20, 20, kernel_size=(3,), stride=(2,), padding=(1,))
        (7): LeakyReLU(negative_slope=True)
        (8): BatchNorm1d(20, eps=1e-05, momentum=0.1, affine=True, track_running_stats=True)
        (9): Conv1d(20, 20, kernel_size=(3,), stride=(1,), padding=(1,))
        (10): LeakyReLU(negative_slope=True)
        (11): BatchNorm1d(20, eps=1e-05, momentum=0.1, affine=True, track_running_stats=True)
        (12): Conv1d(20, 20, kernel_size=(3,), stride=(1,), padding=(1,))
        (13): LeakyReLU(negative_slope=True)
        (14): BatchNorm1d(20, eps=1e-05, momentum=0.1, affine=True, track_running_stats=True)
        (15): Conv1d(20, 20, kernel_size=(3,), stride=(2,), padding=(1,))
        (16): LeakyReLU(negative_slope=True)
        (17): BatchNorm1d(20, eps=1e-05, momentum=0.1, affine=True, track_running_stats=True)
        (18): Conv1d(20, 20, kernel_size=(3,), stride=(1,), padding=(1,))
        (19): LeakyReLU(negative_slope=True)
        (20): BatchNorm1d(20, eps=1e-05, momentum=0.1, affine=True, track_running_stats=True)
        (21): Conv1d(20, 20, kernel_size=(3,), stride=(1,), padding=(1,))
        (22): LeakyReLU(negative_slope=True)
        (23): BatchNorm1d(20, eps=1e-05, momentum=0.1, affine=True, track_running_stats=True)
        (24): Conv1d(20, 20, kernel_size=(3,), stride=(1,), padding=(1,))
        (25): LeakyReLU(negative_slope=True)
        (26): BatchNorm1d(20, eps=1e-05, momentum=0.1, affine=True, track_running_stats=True)
        (27): Conv1d(20, 20, kernel_size=(3,), stride=(2,), padding=(1,))
        (28): LeakyReLU(negative_slope=True)
        (29): BatchNorm1d(20, eps=1e-05, momentum=0.1, affine=True, track_running_stats=True)
        (30): Conv1d(20, 20, kernel_size=(3,), stride=(1,), padding=(1,))
        (31): LeakyReLU(negative_slope=True)
        (32): BatchNorm1d(20, eps=1e-05, momentum=0.1, affine=True, track_running_stats=True)
        (33): Conv1d(20, 20, kernel_size=(3,), stride=(1,), padding=(1,))
        (34): LeakyReLU(negative_slope=True)
        (35): BatchNorm1d(20, eps=1e-05, momentum=0.1, affine=True, track_running_stats=True)
        (36): Conv1d(20, 20, kernel_size=(3,), stride=(2,), padding=(1,))
        (37): LeakyReLU(negative_slope=True)
        (38): BatchNorm1d(20, eps=1e-05, momentum=0.1, affine=True, track_running_stats=True)
        (39): Conv1d(20, 20, kernel_size=(3,), stride=(1,), padding=(1,))
        (40): LeakyReLU(negative_slope=True)
        (41): BatchNorm1d(20, eps=1e-05, momentum=0.1, affine=True, track_running_stats=True)
        (42): Conv1d(20, 20, kernel_size=(3,), stride=(1,), padding=(1,))
        (43): LeakyReLU(negative_slope=True)
        (44): BatchNorm1d(20, eps=1e-05, momentum=0.1, affine=True, track_running_stats=True)
        (45): Conv1d(20, 20, kernel_size=(3,), stride=(2,), padding=(1,))
        (46): LeakyReLU(negative_slope=True)
        (47): BatchNorm1d(20, eps=1e-05, momentum=0.1, affine=True, track_running_stats=True)
        (48): Conv1d(20, 20, kernel_size=(3,), stride=(1,), padding=(1,))
        (49): LeakyReLU(negative_slope=True)
        (50): BatchNorm1d(20, eps=1e-05, momentum=0.1, affine=True, track_running_stats=True)
        (51): Conv1d(20, 20, kernel_size=(3,), stride=(1,), padding=(1,))
        (52): LeakyReLU(negative_slope=True)
        (53): BatchNorm1d(20, eps=1e-05, momentum=0.1, affine=True, track_running_stats=True)
      )
      (smaller): Sequential(
        (0): Linear(in_features=1938, out_features=1024, bias=True)
        (1): LeakyReLU(negative_slope=True)
        (2): Linear(in_features=1024, out_features=512, bias=True)
        (3): LeakyReLU(negative_slope=True)
      )
      (linear): Sequential(
        (0): Linear(in_features=512, out_features=2048, bias=True)
        (1): Dropout(p=0.2, inplace=False)
        (2): Linear(in_features=2048, out_features=512, bias=True)
        (3): Linear(in_features=512, out_features=1024, bias=True)
        (4): LeakyReLU(negative_slope=True)
        (5): Dropout(p=0.2, inplace=False)
        (6): Linear(in_features=1024, out_features=1024, bias=True)
        (7): Dropout(p=0.2, inplace=False)
        (8): Linear(in_features=1024, out_features=1024, bias=True)
        (9): Dropout(p=0.2, inplace=False)
        (10): Linear(in_features=1024, out_features=167, bias=True)
      )
      (fc_final): Linear(in_features=167, out_features=5, bias=True)
    )
  )
)
  mu                       	[0.9686955714654313]
  n_blocks                 	10
  n_epochs                 	11
  n_its_per_epoch          	1024
  np                       	<module 'numpy' from '/home/florian/anaconda3/envs/e37/lib/python3.7/site-packages/numpy/__init__.py'>
  os                       	<module 'os' from '/home/florian/anaconda3/envs/e37/lib/python3.7/os.py'>
…
