…
  fn_pretrain_log_interval 	10
  fn_pretrain_number_of_tests	1
  fn_pretrain_percentage   	11
  l2_weight_reg            	1e-05
  latent_noise             	1.0
  live_visualization       	True
  load_checkpoit           	0
  load_file                	
  load_model               	False
  longer                   	False
  loss_names               	['L_Train', 'L_Test']
  losses                   	[]
  lr_init                  	0.0015
  lr_reduce_factor         	0.05
  lr_reducer               	3
  main_file                	feed_forward_net
  model                    	seperate_hard_solve(
  (cnn): Sequential(
    (0): Conv1d(3, 20, kernel_size=(3,), stride=(1,), padding=(1,))
    (1): LeakyReLU(negative_slope=True)
    (2): BatchNorm1d(20, eps=1e-05, momentum=0.1, affine=True, track_running_stats=True)
    (3): Conv1d(20, 20, kernel_size=(3,), stride=(1,), padding=(1,))
    (4): LeakyReLU(negative_slope=True)
    (5): BatchNorm1d(20, eps=1e-05, momentum=0.1, affine=True, track_running_stats=True)
    (6): Conv1d(20, 20, kernel_size=(3,), stride=(2,), padding=(1,))
    (7): LeakyReLU(negative_slope=True)
    (8): BatchNorm1d(20, eps=1e-05, momentum=0.1, affine=True, track_running_stats=True)
    (9): Conv1d(20, 20, kernel_size=(3,), stride=(1,), padding=(1,))
    (10): LeakyReLU(negative_slope=True)
    (11): BatchNorm1d(20, eps=1e-05, momentum=0.1, affine=True, track_running_stats=True)
    (12): Conv1d(20, 20, kernel_size=(3,), stride=(1,), padding=(1,))
    (13): LeakyReLU(negative_slope=True)
    (14): BatchNorm1d(20, eps=1e-05, momentum=0.1, affine=True, track_running_stats=True)
    (15): Conv1d(20, 20, kernel_size=(3,), stride=(2,), padding=(1,))
    (16): LeakyReLU(negative_slope=True)
    (17): BatchNorm1d(20, eps=1e-05, momentum=0.1, affine=True, track_running_stats=True)
    (18): Conv1d(20, 20, kernel_size=(3,), stride=(1,), padding=(1,))
    (19): LeakyReLU(negative_slope=True)
    (20): BatchNorm1d(20, eps=1e-05, momentum=0.1, affine=True, track_running_stats=True)
    (21): Conv1d(20, 20, kernel_size=(3,), stride=(1,), padding=(1,))
    (22): LeakyReLU(negative_slope=True)
    (23): BatchNorm1d(20, eps=1e-05, momentum=0.1, affine=True, track_running_stats=True)
    (24): Conv1d(20, 20, kernel_size=(3,), stride=(2,), padding=(1,))
    (25): LeakyReLU(negative_slope=True)
    (26): BatchNorm1d(20, eps=1e-05, momentum=0.1, affine=True, track_running_stats=True)
  )
  (spec_solver): Sequential(
    (0): Linear(in_features=2540, out_features=2048, bias=True)
    (1): LeakyReLU(negative_slope=True)
    (2): BatchNorm1d(2048, eps=1e-05, momentum=0.1, affine=True, track_running_stats=True)
    (3): Linear(in_features=2048, out_features=1024, bias=True)
    (4): LeakyReLU(negative_slope=True)
    (5): BatchNorm1d(1024, eps=1e-05, momentum=0.1, affine=True, track_running_stats=True)
    (6): Linear(in_features=1024, out_features=1024, bias=True)
    (7): LeakyReLU(negative_slope=True)
    (8): BatchNorm1d(1024, eps=1e-05, momentum=0.1, affine=True, track_running_stats=True)
    (9): Linear(in_features=1024, out_features=1024, bias=True)
    (10): LeakyReLU(negative_slope=True)
    (11): BatchNorm1d(1024, eps=1e-05, momentum=0.1, affine=True, track_running_stats=True)
    (12): Linear(in_features=1024, out_features=256, bias=True)
    (13): LeakyReLU(negative_slope=True)
    (14): BatchNorm1d(256, eps=1e-05, momentum=0.1, affine=True, track_running_stats=True)
  )
  (param_solver): Sequential(
    (0): Linear(in_features=18, out_features=1024, bias=True)
    (1): LeakyReLU(negative_slope=True)
    (2): BatchNorm1d(1024, eps=1e-05, momentum=0.1, affine=True, track_running_stats=True)
    (3): Linear(in_features=1024, out_features=1024, bias=True)
    (4): LeakyReLU(negative_slope=True)
    (5): BatchNorm1d(1024, eps=1e-05, momentum=0.1, affine=True, track_running_stats=True)
    (6): Linear(in_features=1024, out_features=1024, bias=True)
    (7): LeakyReLU(negative_slope=True)
    (8): BatchNorm1d(1024, eps=1e-05, momentum=0.1, affine=True, track_running_stats=True)
    (9): Linear(in_features=1024, out_features=1024, bias=True)
    (10): LeakyReLU(negative_slope=True)
    (11): BatchNorm1d(1024, eps=1e-05, momentum=0.1, affine=True, track_running_stats=True)
    (12): Linear(in_features=1024, out_features=1024, bias=True)
    (13): LeakyReLU(negative_slope=True)
    (14): BatchNorm1d(1024, eps=1e-05, momentum=0.1, affine=True, track_running_stats=True)
    (15): Linear(in_features=1024, out_features=1024, bias=True)
    (16): LeakyReLU(negative_slope=True)
    (17): BatchNorm1d(1024, eps=1e-05, momentum=0.1, affine=True, track_running_stats=True)
    (18): Linear(in_features=1024, out_features=1024, bias=True)
    (19): LeakyReLU(negative_slope=True)
    (20): BatchNorm1d(1024, eps=1e-05, momentum=0.1, affine=True, track_running_stats=True)
    (21): Linear(in_features=1024, out_features=1024, bias=True)
    (22): LeakyReLU(negative_slope=True)
    (23): BatchNorm1d(1024, eps=1e-05, momentum=0.1, affine=True, track_running_stats=True)
    (24): Linear(in_features=1024, out_features=256, bias=True)
    (25): LeakyReLU(negative_slope=True)
  )
  (combi): Sequential(
    (0): Linear(in_features=512, out_features=512, bias=True)
    (1): LeakyReLU(negative_slope=0.01)
    (2): BatchNorm1d(512, eps=1e-05, momentum=0.1, affine=True, track_running_stats=True)
    (3): Linear(in_features=512, out_features=512, bias=True)
    (4): LeakyReLU(negative_slope=0.01)
    (5): BatchNorm1d(512, eps=1e-05, momentum=0.1, affine=True, track_running_stats=True)
    (6): Linear(in_features=512, out_features=512, bias=True)
    (7): LeakyReLU(negative_slope=0.01)
    (8): BatchNorm1d(512, eps=1e-05, momentum=0.1, affine=True, track_running_stats=True)
  )
  (last_small): Sequential(
    (0): Linear(in_features=512, out_features=256, bias=True)
    (1): LeakyReLU(negative_slope=True)
    (2): BatchNorm1d(256, eps=1e-05, momentum=0.1, affine=True, track_running_stats=True)
    (3): Linear(in_features=256, out_features=10, bias=True)
  )
)
  mu                       	[0.8885337696125644]
  n_epochs                 	11
  n_its_per_epoch          	1024
  nets                     	<module 'nets' from '/home/florian/Desktop/invertible_NNs/experiments/nasa_tests/nets.py'>
  np                       	<module 'numpy' from '/home/florian/anaconda3/envs/e37/lib/python3.7/site-packages/numpy/__init__.py'>
…
